notebook/checkpoint/lstm.pth (torch, 175606 bytes, 13 tensors)

lstm1.weight_ih_l0 f4 [200, 1]
00000000: 9018 3cbc 763b b8bd 40e6 2bbe 0ec3 aebd
00000010: 3cff 6abc db2d 4f3e 40bc eebb 228d 23be
00000020: 4645 203e b868 603e d73a 03bb 8a51 be3b
00000030: f1b9 bf3c cad6 08be d2b3 09bd 14a5 7fbc
00000040: 8e19 29be fe3e 963d fbbc 80bb 290d 2abe
00000050: 52ab bbbd e528 11be be75 4f3d 5b30 30bd
00000060: 5b41 35be 2c0a 55bd 7bff cdbd 0d8d 47bb
00000070: affe c1bd 1530 c5bd fe94 9bbd 8922 563d
00000080: 912f 753e 36ab 82be eb7f 53bd dc59 303e
00000090: 6a43 96bd dc19 0dbe 6dbc 893e 6190 90bc
000000a0: 9dad 2bbe d6bf a3bd 4c9d 923e c863 f7bd
000000b0: d7e3 6abd 2f01 e9bd 4442 2fbe 3a42 21bc
000000c0: 9d01 95bd 375f 4abe cc62 89bc 75ba 19be
000000d0: 9f0a 533d e96a 45bd 318a debd bba9 523e
000000e0: 1b01 4c3d e559 133d 0c29 97bd 01f7 8e3e
000000f0: 9028 3c3e 1eaf 0fbd c72d 223e 9d28 1fbe
00000100: b99c 56be 36b5 9e3e 51d6 0abe e190 913d
00000110: 42d2 04bd 09a3 99bc f57f dbbd 538a 27bc
00000120: 6555 06be 4d4c f7bd 2478 263c e480 e6bd
00000130: 397c 81bb 38cd a3bd c3c3 6fbe 92c3 b73c
00000140: 9267 aa3c affb 7f3d 539f d33e b268 12be
00000150: 4d04 3ebe eb64 a73d 02a2 223d 1bdf 04be
00000160: 78bc bc3e 1769 183d 5715 903c 46fd 16be
00000170: 772c a63e 59a0 43be 4d20 053e 8980 43be
00000180: 458a 51bd 0356 a13c c4ca 31be 9014 61be
00000190: 4b33 613e f606 5b3e 91c8 85bd 429f 3f3d
000001a0: 4380 39be 14c4 34be 7211 0b3e 7d30 38be
000001b0: 239d a73d 4134 ddbd a16b 5cbe 401d 203e
000001c0: f241 563e 2e18 0fbe 2afc 20be 4430 753e
000001d0: 337f 28be 2b7d 693e 5fbe 0a3e 0a56 65be
000001e0: 7cc8 35be 2191 2c3e 6fa9 683e 14a7 443d
000001f0: 6421 2b3e 88e2 26be ba34 063e af6d 5d3e
00000200: 2bb1 533e b856 69be 76d4 e1bc ccec ee3c
00000210: 9c83 563e a773 403e fd5d 88bb 0a3e 06be
00000220: be1d 393e 51ec 55be 9f54 2fbe 27dc 15be
00000230: fc2c ce3d ca97 033e 9261 1ebe a720 54bd
00000240: 709f c1bd a926 fa3d 1743 39be cb5d 45be
00000250: caa6 4abe e732 773e c581 15be 27f6 75bd
00000260: db18 4abe 8908 edbc 59c2 bfbd fe50 b53e
00000270: e3f0 a63d 616e 89bc 4cc1 cc3d 0d39 863e
00000280: 47bb 03bc ffc9 a7bd 39b4 853e 88c5 3ebe
00000290: b02b 62be 401e 953e 0973 af3c 7bde 69ba
000002a0: 41d1 9939 268d 37be 53d2 86bd d1ea 0abe
000002b0: e0d3 9e3b 9d69 33be fc33 8ebd 922a 13be
000002c0: c7c6 82bd 99ee 55be 4463 79be 8d94 88be
000002d0: f496 90bc c2fa e8bc db16 cc3e f8dc 91be
000002e0: c5b1 53be f2ee 3b3e 9df7 1bbd 1819 52bd
000002f0: ca1d b53e 4706 0dbe 131d f5bc a4fc 6bbe
00000300: b0a2 b23e cf80 833c 4edf 3f3d 6627 39be
00000310: 3d59 663d 6952 debb bf7a 23be a5aa 38be
-0.0114804655 -0.08995716 -0.16787052 -0.085332975 -0.014343079 0.20232336 -0.0072856247 -0.15971807
0.15651426 0.21914947 -0.0020024085 0.00580806 0.023404093 -0.13363186 -0.033618756 -0.015603323
-0.16513655 0.073362336 -0.003928778 -0.16606583 -0.09163536 -0.14175756 0.050649397 -0.043014865
-0.17700712 -0.052011654 -0.10058495 -0.0030449063 -0.09472405 -0.096283115 -0.075967774 0.05227903
0.23943926 -0.2552125 -0.051635664 0.17221779 -0.07337077 -0.13779396 0.2690157 -0.01764697
-0.16765447 -0.07995574 0.28635633 -0.12079579 -0.05734619 -0.11377179 -0.17115122 -0.00984245
-0.07275698 -0.19762884 -0.016770743 -0.15012534 0.0515238 -0.04819766 -0.10866202 0.2057256
0.04980574 0.035974402 -0.07380876 0.27922824 0.18374848 -0.035079114 0.15837775 -0.15542836
-0.20958222 0.30997628 -0.13558318 0.071077116 -0.03242708 -0.018754499 -0.10717765 -0.01022585
-0.13118513 -0.120751 0.01016048 -0.11255053 -0.003951576 -0.07998127 -0.23414521 0.022432122
0.02080134 0.062495884 0.41332492 -0.1429775 -0.18556328 0.081735454 0.039705284 -0.12975733
0.3686254 0.037209596 0.0175883 -0.14745054 0.324558 -0.19104137 0.13000603 -0.19092001
-0.051157255 0.019694334 -0.17362505 -0.219805 0.21992223 0.21389374 -0.06532396 0.04678274
-0.18115334 -0.17652923 0.13580874 -0.17987247 0.08184268 -0.10800982 -0.21525432 0.15636158
0.20923594 -0.13974068 -0.15721193 0.23944193 -0.16454773 0.22801654 0.13549183 -0.22396103
-0.1775226 0.16852237 0.22720884 0.0480109 0.16711956 -0.16297352 0.13106051 0.21623872
0.20673053 -0.22786987 -0.02756713 0.029165648 0.20948642 0.18794118 -0.004161595 -0.13109604
0.18077752 -0.20890929 -0.17122124 -0.14634763 0.10067174 0.12850872 -0.15466908 -0.051788952
-0.094542384 0.12214405 -0.18091999 -0.1927406 -0.19790187 0.24140511 -0.14600284 -0.060049202
-0.19736044 -0.028934734 -0.09363241 0.35413355 0.08151414 -0.016776266 0.09997806 0.262154
-0.008040256 -0.081928246 0.2611406 -0.1863004 -0.22086978 0.2912464 0.021417158 -0.0008921397
0.0002933834 -0.17924938 -0.06583085 -0.13566138 0.004847035 -0.17520757 -0.06943509 -0.14371708
-0.0638557 -0.20891799 -0.24354273 -0.26675835 -0.017650105 -0.028439883 0.39861187 -0.28488898
-0.20673282 0.18352869 -0.03807794 -0.051293463 0.3537429 -0.13771926 -0.02992109 -0.23045594
0.34889746 0.016052632 0.04684382 -0.18081436 0.056237448 -0.0067847264 -0.15964793 -0.18033846

lstm1.weight_hh_l0 f4 [200, 50]
00000000: 67e2 793d 108b ca3d e2c5 4a3c 34e6 e93d
00000010: f924 b23d cbf2 02be 74c8 9ebc 766a b53d
00000020: 38d5 013e 830d 1d3c 5f99 c13d 4116 c8bc
00000030: 694c ef3d 15b6 0e3e 1e0e 093e c3d7 d53d
00000040: f83b d9bd 52c1 2b3d 01c3 90bd 17fa 443b
00000050: 406c 293e b7e7 0b3c 78d5 0fbe 6c1d a9bd
00000060: 9803 9abc 5868 413d 6f8a 11bc 16fd 8a3d
00000070: 85ca 8ebd aa81 2f3c d60d 02be 934c 3d3c
00000080: 19a2 6fbd 7c37 673d c74c 74bc 07ae 03be
00000090: 3a35 043d 1277 69bd 4455 54be 3a79 c73d
000000a0: 5172 d83d 5bc2 00be b941 56be a25f 38bd
000000b0: dd92 0bbd 976a 0ebe fa1b 063e c849 243e
000000c0: 2c8a 3cba 1685 a93c f8e9 8b3d 66c0 af3d
000000d0: 773f 133e f9a3 7abd 5c59 b43c 82d5 8cbd
000000e0: d95a dcbc efab 53bb 0c9d cc3d 8061 52bb
000000f0: 4a81 e1bd a5dc 083d 8a92 b8bd fb2c 523d
00000100: 1af4 4fbc 46b8 923c eb2a 003e d3a5 763d
00000110: 32fe b33d 5b11 e4bc 0880 573d bf4a 6c3b
00000120: dc6e 0abe e7a7 243d f61c 933d b897 7f3d
00000130: 88b0 a73d 9c1e 25be c562 10be f9be d3bd
00000140: c223 e33d df3b 6f3d 27aa babc ef13 bb3d
00000150: 1e7e 903d 47fa 7c3d b36b 20bd 2eb6 a23d
00000160: 2f27 b8bd 514d 103e 906e e3bd dd06 5cbc
00000170: 97bd f2bd ac36 90bb c071 83bb 791e e23b
00000180: abf9 87bd 6aad f23c 6987 c6bd e886 bdbd
00000190: b221 773b 8be3 ad3d 9b13 af3d 4941 59bc
000001a0: a25b d23d 0e56 31be 4161 8bbd 2f2b aebd
000001b0: 70c1 bebd ea7d 9f3d 859c b7bc abe1 7b3d
000001c0: bd99 043d cb92 b53d f279 273d 53d9 08be
000001d0: 49aa 41bc 2d93 a8bd e3bf d63d 67d6 83bc
000001e0: 7155 de3b 8ac1 c43d e3c3 07be 22d1 cabc
000001f0: 84d6 803d db37 f23d 80ce b53d 8c2f dfbd
00000200: be49 51bd 2462 cebd d3cd 69bd 74ef 793d
00000210: fce2 40bd 4549 cc3d c5cb 0c3e 62fc d4bd
00000220: 77a3 9f3d b026 743d 26ae 2dbd 19d5 38bd
00000230: fa10 aa3d 67d1 ce3d 8e7a d13d 79ce 09be
00000240: aa31 2c3d 5c3e a9bd 10fb 933d e73c a1bd
00000250: aa05 f1bd a57d 0c3d f025 713c 297a babd
00000260: 77b5 39bd e76c f6bc c050 233d ae75 f7bd
00000270: 16c5 8d3d 4bf6 a83d a541 34bd 9332 a33d
00000280: c10d e53c 1f9f 8f3d eb82 82bc 04a6 d8bd
00000290: ab4e f8bc 6c5f a4bd 9479 07bc 837b b0bd
000002a0: 664b f13c c4a7 a93d f633 c5bd 336e 033e
000002b0: 5738 8e3d 5fe2 adbc 7fc9 553d 80ce 8dbc
000002c0: c343 cbbd a6dc ea3c 5634 aabd 0ae4 73bc
000002d0: 1989 003e 53d5 fb3d cc22 b63c f458 efbd
000002e0: 5c3a a9bd 017e 3fbc ab85 ec3b 3a41 bb3c
000002f0: 6ea3 413d df10 e53d fc1c febd ca66 4f3d
00000300: d9ba e4ba f3fe 9bbc 85f5 603a 4a39 07be
00000310: ca04 e83d 2c66 043d c1c7 68bd f29b 83bd
00000320: 506d 12bd cc32 f2bd 3cf7 ebbc 1641 af3d
00000330: bd91 b23d 7ada 45be 3a6e a2bd 0213 0e3e
00000340: 2138 273e 28b9 403c 93ed 23be 3fe8 bd3c
00000350: 2f39 813e 4740 4cbd 0482 bbbc 351c 4b3e
00000360: 82a5 6ebd 3f62 143e e600 bdbd 880f 0e3e
00000370: 72a2 c23d 315c ea3c 94c3 0a3d 3e62 11be
00000380: a0cc 8ebc db0f cd3c ddff ddbd 0271 ac3d
00000390: 2ca4 c23d 6c7e 92bd cbc7 f43c 8971 02be
000003a0: 1ae6 cf3d 42d1 1fbe 3347 c83d 2052 433b
000003b0: 2dce 323d 99b4 51bb 02e9 3fbd 86ec 233e
000003c0: 9642 65bd 2761 c23c 3f8a 68be aeb5 143d
000003d0: e8b5 dcbd bf77 d43c a839 fdbd ae23 8f3d
000003e0: 3861 d93d ccd9 1d3d bd8e de3c 452b 4fbe
000003f0: b108 de3d 8dd8 4d3d fcb7 a83d 44ae 513d
0.06100693 0.09889805 0.0123762805 0.11420861 0.08698458 -0.1278793 -0.019382693 0.088581964
0.12678993 0.009585741 0.09453081 -0.024424674 0.11684496 0.13936646 0.13384292 0.10441544
-0.10607141 0.04193241 -0.07068444 0.0030056292 0.165452 0.008539132 -0.14046276 -0.08257565
-0.018800542 0.04721865 -0.008883103 0.067865536 -0.06972221 0.010712067 -0.1270059 0.011553901
-0.058504198 0.0564494 -0.014910883 -0.12859355 0.032277323 -0.05699832 -0.20735651 0.09739919
0.10568679 -0.1257414 -0.20923509 -0.045013078 -0.034075607 -0.13907848 0.1309661 0.1604377
-0.000719222 0.020693343 0.068317354 0.08581619 0.14379679 -0.061191533 0.022015266 -0.06876661
-0.026898788 -0.0032298525 0.09990892 -0.0032101572 -0.11010988 0.033413548 -0.09012325 0.051312428
-0.012692476 0.017910134 0.12516372 0.060216736 0.08788718 -0.027840307 0.052612334 0.0036055294
-0.13518852 0.040199187 0.07183258 0.06240055 0.081879675 -0.16124958 -0.14100178 -0.103391595
0.11090805 0.058406707 -0.022786213 0.091346614 0.07055305 0.06176212 -0.03916521 0.07944904
-0.08991849 0.14091994 -0.111050725 -0.013429371 -0.11852568 -0.0044010486 -0.004011363 0.0069006053
-0.06639417 0.029623706 -0.09693796 -0.09254247 0.0037709293 0.08490666 0.08548661 -0.013260194
0.10271384 -0.17317984 -0.06805659 -0.0850433 -0.09314239 0.07787688 -0.022413502 0.06149451
0.03237318 0.08865889 0.04088778 -0.13364153 -0.011820384 -0.082311966 0.10485818 -0.016093446
0.0067850878 0.09607227 -0.13258319 -0.024757925 0.062909156 0.1182706 0.088772774 -0.10897741
-0.051095717 -0.100773126 -0.057081055 0.061019376 -0.04709147 0.099749126 0.13749607 -0.10399701
0.0779485 0.059607208 -0.04240241 -0.0451251 0.08304019 0.10098534 0.102284536 -0.1345767
0.04203955 -0.08263847 0.07225621 -0.07872944 -0.117686585 0.03429951 0.014718518 -0.091053315
-0.045339074 -0.030081226 0.03987193 -0.120829925 0.06922357 0.08250102 -0.044007916 0.07968631
0.02796066 0.07012772 -0.015931567 -0.1057854 -0.03031095 -0.08026013 -0.008268733 -0.08617308
0.029454898 0.08283952 -0.096290514 0.12835006 0.0694434 -0.021226106 0.052194115 -0.017310381
-0.09925034 0.028669666 -0.083107635 -0.014885912 0.12552299 0.12296548 0.02223339 -0.11686888
-0.08263084 -0.0116877565 0.007218083 0.02285825 0.047275 0.111848585 -0.12407872 0.050635137
-0.0017450704 -0.019042468 0.0008581507 -0.13205448 0.113290384 0.032324 -0.056831125 -0.064262286
-0.03574878 -0.11826095 -0.028804414 0.08557336 0.087192036 -0.19321623 -0.0793118 0.13874438
0.16330005 0.011762895 -0.16008596 0.023182033 0.2523894 -0.049865987 -0.022889145 0.19834979
-0.05826331 0.14490603 -0.09228687 0.13873112 0.0950364 0.028608413 0.033877924 -0.14197633
-0.017431557 0.025031975 -0.10839818 0.08419992 0.095039696 -0.07153019 0.029880425 -0.12738623
0.1015131 -0.1560717 0.09779205 0.002980359 0.043653656 -0.0031998514 -0.046853073 0.16008195
-0.055971704 0.023727966 -0.22708987 0.036306076 -0.10776883 0.025936006 -0.12364513 0.06989227
0.10614246 0.038537785 0.027167672 -0.2023135 0.108415015 0.050255347 0.08238217 0.051191583

lstm1.bias_ih_l0 f4 [200]
00000000: 3691 c6bd c17c 9c3d bc48 a6bd 3cc6 ae3d
00000010: 1305 6cbd 68c6 43bd f291 90bd db14 eebd
00000020: b368 03bd 94d7 0bbe 4594 c9bb 1082 74bd
00000030: 6954 ec3d 38bd 45bd 6f45 ad3d 83e7 c5bc
00000040: 6095 b43c a7c8 273e 899b 893d 61e9 a7bc
00000050: d1d5 5c3d c265 753d 68c4 993d 62e4 0fbd
00000060: 43a9 173d 7da0 a93d 01f9 54bd f51a 2f3e
00000070: e681 d83d ff5a e3bc abe0 47bd ad09 e43d
00000080: a932 b1ba d91c 4a3d 95fe 94bd 676d b03d
00000090: af0b d53d 151b 93bd dd05 5e3d 9418 07be
000000a0: 60f6 a5bd b9c1 163e 54f7 a13d b985 053e
000000b0: 00a4 bfbd c867 5cbc 514b 373d 784e a2bd
000000c0: f720 83bc 10bb b03d 7d24 703d 861b 85bd
000000d0: 7815 273c 27e9 1e3c ec76 bd3b dc14 88bd
000000e0: 78b0 11be 62c8 6abb a85d 093e ced5 8f3b
000000f0: 6d5c ca3d bef0 883d a5ba 84bd 0c21 1cbe
00000100: 4adf d93d fd09 ef3d 6c52 8cbd 3a8c eebd
00000110: 1d57 a5bd 39cf 40bd d842 15be 05fa 983d
00000120: 9cee fdbd 88c0 973d 5e35 143d 8ac0 d83d
00000130: 4d9a 8c3d 8419 623d 060d cc3c bf01 b5bd
00000140: f57b e3bc e786 1abe ecbc 8c3d 4ffa b1bd
00000150: 6d1f cc3c bcc5 ff3b 646a 15be c137 bebc
00000160: f141 dbbd 18d3 30be e332 873b c4c0 5fbd
00000170: 8663 a6bc 6efe 923d 1f85 723d c242 8cbd
00000180: 78ad a5bd 4dc2 83bc e015 bdbd dca8 223d
00000190: 0bdd 063d 631f a9bd 74d9 173d c529 83bd
000001a0: e24c b83d 2a3b f83c 2360 c5bd 4beb 7b3d
000001b0: b59d 95bb 39c0 8bbd 472d 0abe b6a0 06bd
000001c0: 1f77 bb3d 01d3 093d b72a 15bc dc69 633d
000001d0: 505d e13c 82a8 d7bd 3de5 99bd dff7 5e3c
000001e0: 41d7 b93d 2238 863d 2b5d 36bc cf18 f0bd
000001f0: e27d 6fbd f290 a23d ef70 cfbd ce72 d7bd
00000200: 4d67 0ebd 2c9f a5bc 4018 36bd e9a8 ebbd
00000210: 89ea 68bb c525 ebbd 2697 313d 4010 fbbd
00000220: 3231 a63d c18c 573c 54ba 1bbd 4c2e 733d
00000230: 3929 b5bd f5b0 973b f6de 6f3d 3de3 61bd
00000240: eb9c a2bd 2362 033e 4d53 2abd 6a2b 883d
00000250: 788a bb3d b0e0 ef3d a300 68bd 4282 cd3d
00000260: 6660 6fbb 1c73 e9bd 8375 3c3e d438 49bd
00000270: 7090 f33d 5c6e fb3d 1cab 243c ca9c c3bd
00000280: fd42 003e dd54 0ebe f8bf e8bc 04c6 ac3d
00000290: 97ee ccbd 0fc2 abbd bf80 a2bd 47f6 523e
000002a0: 4275 56bc 3adc 5c3d cd0f dcbd 16ed 0f3e
000002b0: 632a 793d 7da7 c03d 3bac a73d 3237 8b3c
000002c0: b30a 723c dce2 413e 0159 6fbc 40e5 393e
000002d0: 1d86 e43d 55b2 4abd ad9b 10bc d2f9 d3ba
000002e0: 6ba4 14be de47 d13d b202 443c b9c3 74bd
000002f0: 7b99 803d f042 6abd cccf bebd a6e7 893c
00000300: 986c b63d cd5b eebb c622 e2bd 36ae 28bd
00000310: ad30 7fbd abde 9ebd 016f bebc 8b8c 0c3e
-0.096956655 0.076409824 -0.08119342 0.08533904 -0.057622027 -0.047796637 -0.07059087 -0.116250716
-0.03208227 -0.13656455 -0.0061517083 -0.05969435 0.115395375 -0.048276156 0.08460509 -0.024158245
0.022043884 0.16385137 0.06719119 -0.020497026 0.05391485 0.059911497 0.07508165 -0.035129912
0.037026655 0.08282564 -0.05199528 0.17100127 0.10571651 -0.027753351 -0.048798244 0.11134658
-0.0013519126 0.049343918 -0.0727512 0.08614617 0.10402619 -0.071829 0.05420481 -0.1319297
-0.08103633 0.14722337 0.07908502 0.13039292 -0.093574524 -0.013452478 0.04474956 -0.07925123
-0.01600693 0.08629429 0.058628548 -0.0649939 0.01019799 0.009699143 0.005781999 -0.066446036
-0.14227474 -0.0035825004 0.13414633 0.004389501 0.0988091 0.06686543 -0.06480912 -0.15246981
0.10638292 0.11671827 -0.06851658 -0.1164784 -0.08073256 -0.047072623 -0.1457628 0.074695624
-0.12399027 0.07409769 0.036183707 0.10583599 0.06865368 0.055200115 0.024908554 -0.08838224
-0.027769068 -0.15090524 0.068719715 -0.08690321 0.024917329 0.007805554 -0.14591366 -0.023219945
-0.10705937 -0.17268026 0.004125939 -0.054627195 -0.020311128 0.07177435 0.059208985 -0.068486705
-0.08089727 -0.01608386 -0.09232688 0.039711818 0.032925647 -0.0825794 0.037072614 -0.06404451
0.08999039 0.03030165 -0.09637477 0.06150369 -0.0045659193 -0.06823773 -0.13493834 -0.03286811
0.0915358 0.033648495 -0.009104422 0.055520877 0.027510315 -0.10530187 -0.07514427 0.013608902
0.090742595 0.06553675 -0.011130611 -0.11723482 -0.05846966 0.079378024 -0.10128962 -0.10519944
-0.034766484 -0.0202175 -0.04445672 -0.115068264 -0.0035540184 -0.11481813 0.043357037 -0.12258959
0.08114852 0.013156117 -0.038019493 0.059370324 -0.08845753 0.004629249 0.05856224 -0.055148352
-0.07940086 0.12830405 -0.041583348 0.066489056 0.0915727 0.117127776 -0.056641232 0.1003461
-0.0036525964 -0.113989085 0.18404202 -0.04912646 0.11892784 0.12276909 0.010050561 -0.095513895
0.12525554 -0.1389956 -0.02841185 0.08436206 -0.10006445 -0.08386623 -0.079347126 0.2060176
-0.01308948 0.053920962 -0.10745201 0.14055285 0.06083144 0.09406946 0.08187147 0.016994093
0.014773059 0.18934196 -0.0146086225 0.18153858 0.111583926 -0.049486477 -0.0088261785 -0.0016172475
-0.14515845 0.10218786 0.011963533 -0.05975697 0.06279274 -0.057192743 -0.09316978 0.016834091
0.08907431 -0.007274127 -0.11041789 -0.041181765 -0.06230228 -0.07757314 -0.02324629 0.13725488

lstm1.bias_hh_l0 f4 [200]
00000000: 930f bebd 441e e23d 5d15 1e3d d630 9f3d
00000010: 0baf 223e 6f4e 5a3e 7ac0 1b3e dd84 19bd
00000020: 3b0e 8ebd 8338 8fbc 3b0b 75bd ae4f a73d
00000030: e226 2e3e 7c96 98bd 7573 45bc ffff 87bd
00000040: afab 2cbd caa9 723e 84c5 1ebd 6075 9ebb
00000050: aa45 84bb 23a5 153c 1088 ccbc b7c6 cdbd
00000060: 3084 ffbc 908b 353e e2cf 10be aadb 643d
00000070: d61d 603d 1f45 47bd 1092 dc3d aeb3 46bc
00000080: d30f 83bc 4e82 3d3d f88b 5bbd 037b ff3d
00000090: a152 6cbd 67b0 5fbd 3556 de3d 0b0d e23d
000000a0: 796e d03c 029b cabd 2357 053e 23f8 ea3d
000000b0: 816a 04be 57af bdbd c35a ec3d 0c96 9bbd
000000c0: ba65 233e fbb0 653d ae41 613d 3101 a9bc
000000d0: d243 80bd af72 dbbd ed39 8abc 4bb4 14be
000000e0: 054e 31be c042 9a3c 4eb5 aebd b209 cb3d
000000f0: 1203 c3bd ffc4 05be e092 ffbd 5ab2 13be
00000100: 2ef1 41bc 3539 9fbc 3eab 033e 052e 3cbc
00000110: 51f9 9fbd 650b 8dbd eb9b cc3c 0b52 6abd
00000120: aaf9 90bd 6e89 3abd ce12 24be 8c2d a03d
00000130: 6677 f2bd ea49 ebbd 3c73 c9bd b9c4 ffbb
00000140: 81d1 f23d 1af3 adbd 7c66 b4bc 5888 36bd
00000150: 7cf6 b8bd cf15 ddbd 1280 473d ca6c 8c3d
00000160: ae8b b33c 8bc0 2abd 8451 b4bd 1880 303d
00000170: 1ae1 8fbd 8064 26be 4318 4ebd 5da8 b33a
00000180: cec2 38bd 74c2 973b 69f2 0c3e 0657 073e
00000190: 18d9 b1bd ccd0 2ebd df77 ba3d 136e 70bd
000001a0: eb1d bcbd aaff b4bd 7af5 9b3d 15d4 bb3c
000001b0: 347d 483c 0629 c2bd 096a 543d cedf 16bd
000001c0: ebeb 9e3d fbec 2f3d b7fd 98bc f477 fa3d
000001d0: 93ad 353d 4a2e 173e f431 8fbd 5d04 acbc
000001e0: e426 cb3d b7bc 2a3d 2f3f e23c 9217 2cbc
000001f0: 303d c9bd c30f edbd 6de7 51bd 7660 143e
00000200: be11 84bc d733 843d 63cb 6dbd 3a29 79bc
00000210: 6363 193e c555 123d a18a dcbd d95b 0b3d
00000220: dbcf 983d 4e65 c33d e894 efbd fab0 3a3d
00000230: 7ed0 bfbd 5913 b5bd 2ed0 01be e007 703d
00000240: 8415 95bd 51fa f5bd 0a4d 373c cca0 343c
00000250: b455 d0bd 4b3d febd 7b57 e5bd bda8 9f3c
00000260: 3672 28bd dd5b febc be19 133e f371 ec3c
00000270: 6234 89bd 339c e8bd aea9 2abd 8e57 4bbb
00000280: 331e de3b 30de 15be 9555 153e 12ca 1b3d
00000290: 1526 05bd 3a01 90bd 6efc 98bd d51e 433e
000002a0: 1021 f23d 3b2f 4cbd d371 1fbe 98aa 29bd
000002b0: aea5 143e 49bb 8fbd 9976 983d 1f84 8f3d
000002c0: b392 b93c 028b 283e 0360 a6bc 7039 b73d
000002d0: 3455 793d 08e1 8a3d b3cf dc3c 67d4 253e
000002e0: b6ba 15be 25b4 ce3c 95b3 cfbd d1b2 433d
000002f0: c074 213d fafd 9d3c af9e e8bd 8efc 183e
00000300: 2582 a53d 5232 c93d 61b8 9a3d fe83 96bd
00000310: e7f1 bb3b a046 11bd a82e 61bd 6c51 c73c
-0.09280314 0.11040929 0.038594592 0.077729866 0.15887086 0.21318983 0.15210143 -0.037480224
-0.06936308 -0.017483002 -0.059825163 0.081694946 0.1700702 -0.074505776 -0.012051453 -0.06640624
-0.042155918 0.23697582 -0.038762584 -0.0048357695 -0.004036625 0.00913361 -0.024967223 -0.100476675
-0.031190962 0.1772902 -0.14141801 0.05587355 0.054715954 -0.048649903 0.10770047 -0.0121278
-0.015998757 0.046266846 -0.05360028 0.124746345 -0.05769599 -0.05461159 0.108562864 0.11037644
0.025443302 -0.09892847 0.13021521 0.114731096 -0.12931253 -0.09261959 0.11540749 -0.075969785
0.15956774 0.056076985 0.054994278 -0.02063045 -0.06262936 -0.107152335 -0.016873324 -0.14521901
-0.17314918 0.018830657 -0.08530675 0.099139586 -0.0952207 -0.1306343 -0.12479186 -0.14423504
-0.011837287 -0.019436458 0.12858292 -0.011485581 -0.07811225 -0.06886939 0.024976691 -0.05720715
-0.0707887 -0.04554122 -0.16022798 0.078211874 -0.1183918 -0.11488707 -0.09836432 -0.0078054336
0.11856366 -0.084936336 -0.022021525 -0.04456362 -0.09031388 -0.10795175 0.04870612 0.06856687
0.02191719 -0.04168753 -0.0880461 0.04309091 -0.070253566 -0.16249275 -0.050316107 0.0013706792
-0.045107655 0.004631335 0.13764347 0.1321679 -0.086839855 -0.042679593 0.09104895 -0.058698725
-0.09185394 -0.088378266 0.0761518 0.022928277 0.012236882 -0.09480481 0.051858936 -0.03683453
0.077598415 0.04295061 -0.018675668 0.122299105 0.044354986 0.14763752 -0.0699195 -0.020998174
0.09919527 0.04168388 0.027618019 -0.0105036665 -0.09826124 -0.11575272 -0.051246095 0.14489922
-0.016121741 0.064552 -0.058055293 -0.015207583 0.1497932 0.035726327 -0.10768629 0.03402314
0.0746152 0.09540807 -0.116983235 0.045578934 -0.093659386 -0.08841581 -0.1267707 0.05860126
-0.072794944 -0.12010635 0.011187801 0.011024665 -0.101725966 -0.124140345 -0.11198326 0.01948964
-0.041124545 -0.031049663 0.14365289 0.028862929 -0.06699444 -0.11357918 -0.041665725 -0.0031027528
0.0067785024 -0.14635539 0.14583428 0.038034506 -0.03250702 -0.07031484 -0.07470022 0.1905473
0.118227124 -0.04984973 -0.15570764 -0.041422457 0.14516327 -0.07018144 0.07444496 0.07007622
0.02265296 0.16459277 -0.020309454 0.08946502 0.06087227 0.067812026 0.026954507 0.16194306
-0.14622006 0.025232384 -0.101416744 0.047777954 0.039417982 0.019286145 -0.113583915 0.14940092
0.08081464 0.09824051 0.07554699 -0.07349394 0.005735624 -0.035467744 -0.054976135 0.024330817

lstm2.weight_ih_l0 f4 [256, 50]
00000000: eca0 27be bca2 c7bd 1e05 923d 9dba 09be
00000010: ab88 0b3e 43f2 25be 543d 1ebd 3a87 323e
00000020: 2cf4 073e 16a6 debd 5ca3 5bbe 640d 84bd
00000030: 66fb ab3e f163 263e de6e af3d 94fe a83e
00000040: 2640 27bd eb3c 223e e29f 6bbe 8ede a23d
00000050: fa03 3e3e 0253 c7bd bd3c a63d 1396 66be
00000060: 52e3 1abd b0bb 3bbc f2b8 17be 9b2e 513d
00000070: 804f 75be 5984 713c eafa 8dbd b0f4 d9bd
00000080: 0cff e53e 5222 5dbe 0ea6 69be f4e9 24be
00000090: afec d83d c282 c93d 25cf 6dbe 3dc2 e13d
000000a0: 41b0 69be ff8f 60be fc41 82be 1021 a93d
000000b0: ee4d 61be 4117 b6bd ab00 2e3d 5ce8 d03d
000000c0: bce9 253d e3c2 c9bd 5add b9bd 9ed5 3d3d
000000d0: 135e 133e 348d 983d 7aa2 573c 8b4a 5ebe
000000e0: 9574 35bd 9c2f d33a 1749 053e 4662 f63c
000000f0: 149a 5cbd 5330 093e a953 273e 4cdd c93d
00000100: 8bfb 9c3d c8c2 f03c 5304 85bd 6a5a 173e
00000110: a990 513d 3ea2 febc 4be9 063e 0733 073e
00000120: 60a8 853a dd43 8f3d 83e3 c73b 0481 bdbc
00000130: 397f af3d 6014 ce3d da09 903c 5f8e 9fbc
00000140: 2859 47bc 9128 5fbd b5dc a13d 2c73 903d
00000150: a1f2 06be 5d60 1bbe b638 75bd 33a3 a0bd
00000160: 807f 45be 8604 15bd 7cb0 8a3c 7bc4 9abd
00000170: 47ab f4bd e85b eebd 959e 32be 8c6c 74b9
00000180: 004a d8bd c2d1 8e3d c016 e0bc fd07 053d
00000190: 81e1 84bd 031c ee3d 3312 4f3d 43a7 cdbd
000001a0: 0ff8 273d e1a8 febb 70a7 313d a50a 7abd
000001b0: 5f32 1e3d a6e4 253b 47f9 00be 24e8 1fbd
000001c0: e345 c93d 8378 85bc f7aa 1dbe 2708 5c3e
000001d0: 5760 22bd 08a1 1c3e da64 da3d d501 36bd
000001e0: 324e 78bd 2562 673d 9714 583e 4c1e b4bd
000001f0: b605 093e c937 8fbd 4868 bfbc c0ec 2b3e
00000200: a696 a63c 3456 33bd 1cbe 473d 50d7 49bd
00000210: 3d52 373e 9071 a7bd 64e4 853d 5875 0cbe
00000220: cbc3 843d 7354 193d e510 05be f245 903c
00000230: 5cd4 2abd 0485 5bbd 820b bfbd 3d8e b6bb
00000240: 75ca a23d c37d 523d 81e3 b93c db9f ddba
00000250: bb97 0ebe 53a5 82bc aecb 16bd 1859 b2bd
00000260: 4c19 7bbd 7a15 02be 6825 bc3b 59bc a23d
00000270: 7e94 4f3c c260 5fbd a2dc 5d3d 56de c6bd
00000280: 6179 e0bc 49d9 5b3d f1ab ecbc 54b6 203d
00000290: afcf 0d3e 6884 0bbe a40f 81bd 12d0 f73c
000002a0: 0596 cf3d f6c1 1a3e f74d cd3d 76df 973d
000002b0: fcb2 28be 35ca bcbd 5a9e 82bd aa75 25bc
000002c0: 7473 073d d2ae a23d f857 08be 9409 4ebb
000002d0: 59a4 963d 9c07 733c c688 a33d f0b0 8d3d
000002e0: 2cb1 dcbc cc0f 623c b13b 6dbd a6d7 b63d
000002f0: e76c 2f3b d3ea a1bb c00d 233d 9ea6 ba3d
00000300: aac1 093d b4e9 0e3e 221c 02bc 4fe5 c9bd
00000310: 6183 b23d 61f5 613d 5cf6 6c3d 66c6 743d
00000320: 4b6d 943c 1cc8 193d 8d4d 9dbd 485b 86bd
00000330: fe47 243e fac3 18bc 99fe 623d 617a 033d
00000340: 8573 b13d b62f 41bd 1220 3d3e e820 b73c
00000350: f980 92bd 7ac8 933d 34cf c0bc f096 36be
00000360: 683c 7cbc 9b77 1ebe 0b7f 41bd 7df1 e13d
00000370: 0efd 8ebd 580c 1ebe 96cb 05bd 7076 85bd
00000380: 5ef5 b5bd f19f 483c 53ea 5ebd 1285 213c
00000390: 7e4c 613c e7e3 323e 9d99 be3d e547 a5ba
000003a0: 9a1f 58be 577a 4dbc 2770 993d f48d 443d
000003b0: de8a 033e 2be3 59bd 2998 983d 09c8 5f3d
000003c0: abd4 1abe 040e 9dbd 614f 193e 8a2c a83d
000003d0: 87cc dfbd 747c 27be c1b4 573d b9d1 63bc
000003e0: 9dbb ee3b 2cdf d3bd a4fa 5c3e 1d26 07bd
000003f0: e9cb 8f3c 5376 cd3d b876 9f3b 5dad 97be
-0.1636998 -0.09747836 0.07129882 -0.13450094 0.13626353 -0.16205697 -0.038632706 0.17434397
0.13276738 -0.10871522 -0.21449035 -0.064478666 0.3359024 0.16249062 0.08566068 0.33006728
-0.04083266 0.15843551 -0.23010209 0.07952605 0.18556204 -0.09732629 0.08117054 -0.22518186
-0.037814446 -0.011458322 -0.14816645 0.051069837 -0.23956108 0.014741027 -0.06932624 -0.106423736
0.44921148 -0.21595123 -0.22817251 -0.16104871 0.10592019 0.09839393 -0.2322355 0.11023376
-0.22821142 -0.2192993 -0.25440967 0.08258259 -0.22002384 -0.08891154 0.042481106 0.10200569
0.04050611 -0.09851625 -0.090754226 0.0463463 0.14391355 0.07448807 0.013161296 -0.21708123
-0.044300634 0.0016112211 0.13016163 0.030076157 -0.053857878 0.1339734 0.16340508 0.09856662
0.076651655 0.029389754 -0.064949654 0.14780584 0.05116335 -0.031083222 0.13174932 0.13203059
0.0010197274 0.06995366 0.0061001196 -0.023132809 0.08569188 0.1006248 0.017582823 -0.019477068
-0.012167253 -0.054482047 0.07903425 0.07053217 -0.13178493 -0.15173478 -0.059868537 -0.07843628
-0.19286919 -0.036381267 0.016929857 -0.07557007 -0.11946731 -0.116386235 -0.17443307 -0.0002331009
-0.105609894 0.06973602 -0.027354598 0.03247832 -0.06488324 0.116264366 0.050554466 -0.10041668
0.04100805 -0.007771597 0.04337257 -0.061045308 0.038622256 0.0025313287 -0.12595092 -0.039039746
0.09827783 -0.016292816 -0.15397249 0.21487485 -0.039642658 0.15295804 0.10663767 -0.04443534
-0.060621448 0.056490082 0.21101604 -0.08794841 0.13381085 -0.06993062 -0.023365155 0.16789532
0.020335507 -0.04378338 0.048765287 -0.049277604 0.17902465 -0.08175957 0.06537703 -0.13716638
0.06482657 0.037434053 -0.12994726 0.017611478 -0.041706428 -0.05359365 -0.09328367 -0.0055711553
0.07948772 0.051389467 0.02269149 -0.0016908603 -0.13925068 -0.015947973 -0.036815338 -0.087083995
-0.06130342 -0.12703505 0.005741764 0.07946081 0.012669681 -0.054535635 0.05416549 -0.09710376
-0.027401628 0.053674016 -0.028890582 0.03923638 0.13848756 -0.13624728 -0.06301811 0.030250583
0.10136036 0.15113053 0.10024636 0.07415669 -0.16474527 -0.092182554 -0.063778594 -0.010098854
0.03306909 0.079435006 -0.13314807 -0.0031438814 0.073555656 0.014833357 0.07985072 0.06918514
-0.02693995 0.013797712 -0.057918254 0.089278504 0.0026767792 -0.0049413233 0.039808035 0.09113811
0.033631958 0.13956338 -0.007941278 -0.0985819 0.08716465 0.055165652 0.057852134 0.05975952
0.018118521 0.037544355 -0.07680807 -0.06560379 0.16043088 -0.009324068 0.055418584 0.03209913
0.08664612 -0.04716464 0.18469265 0.022354558 -0.07153506 0.07215972 -0.023536302 -0.17831016
-0.015395261 -0.15475313 -0.0472403 0.11032388 -0.0698186 -0.15434396 -0.032664858 -0.06516731
-0.08884691 0.012245164 -0.054422688 0.009858387 0.013751147 0.1746975 0.09306643 -0.0012609927
-0.21105805 -0.012541375 0.074920945 0.04798694 0.12845942 -0.05319516 0.07450897 0.054634128
-0.15120189 -0.07668689 0.14971687 0.0821162 -0.10927682 -0.16356069 0.052662615 -0.013904982
0.007285549 -0.10345301 0.21579987 -0.032995332 0.017553287 0.10032334 0.0048664473 -0.29624453

lstm2.weight_hh_l0 f4 [256, 64]
00000000: bd8f f03d 91b3 e4bd 3ca6 6d3e 0f02 3e3d
00000010: e092 5f3e f720 b23e ca5e 0f3e df87 7b3e
00000020: 85c8 143e b056 07be 37ab 3c3e fd26 3cbe
00000030: e992 e03d 7425 23bd a39e 453e 0ce1 f4bd
00000040: fea3 233e 646b e53d 434c 043e f6a1 f13d
00000050: 6dd4 5b3d f74e ac3d d62f 64be f36b 78be
00000060: 71d0 faba 88a8 273d 2eac 6c3e 4f89 ec3d
00000070: ea5b db3d e66b 343e f9c5 0b3e 529a 013d
00000080: 4d05 dbbd 5105 293e 85a4 64be 6127 f33c
00000090: 3f0f 763d 5294 68bd 463d 36bd e763 2d3e
000000a0: d4b4 333d f277 423e dc33 2d3e a9ab 88bd
000000b0: 1d34 44bd e91a febd 4857 5f3d 4270 713e
000000c0: 4866 c53d ee94 e43d d9fc c33c 7251 baba
000000d0: c134 d6bd dc89 68be e58f 6e3d a440 23be
000000e0: 9076 103e 172a 49be 66af 2bbe aefc 78bc
000000f0: eb89 533d 184b 55be ee4a 18be 81f2 b1bb
00000100: b78e da3d 00a0 183d 74b8 15bd b23f b93c
00000110: 4b0a b5bd 5d9c 6e3d 288c 0d3e cb75 cc3d
00000120: 494d 0a3e c8b6 88bd 5435 a3bd 9c3e 9dbc
00000130: 1c80 6a3e e7c0 a63d 10ec 27bd b53b 21bb
00000140: 2e29 2e3d 2d82 4fbd a4ad babb d763 5bbd
00000150: 6e74 cdbd 7a9e 31bc 5d64 6f3d d3cf 163c
00000160: 187e e9bd 8758 883d bd2b 8b3b 8aa9 3f3d
00000170: 89a4 aa3d 26a5 b23d bf7f 8e3d 3eee c5bd
00000180: be72 7dbc 6d8a 183e b867 80bd 3173 473d
00000190: a26f 063e b44f 943d 063b 2cbd 2f1c 85bd
000001a0: b12b 233e 4318 94bd 2dc3 c33d 1214 b5bd
000001b0: fc15 00be 0df8 d5bd a9a1 cc3c 402f d9bc
000001c0: e95d 99bd 54b5 a93d 4975 1c3a f17d 94bd
000001d0: 0bcf 2e3c 74f3 b43d 641b e23d 6173 e2bc
000001e0: c309 28bd c7a5 9ebd f8f8 c9bd 1650 78bb
000001f0: ab3f d83a eb5d c0ba 0d93 e13d 534c e23d
00000200: 6b78 d63d 5504 583d 7d63 e93d c99e a3bd
00000210: f470 ea3b 78ea 8bbb 8005 8ebc eda8 f3bd
00000220: 31bd 133c e70c febd 87f7 aa3d 71ba 03bd
00000230: 89b2 29bc 60f2 b6bd 00b0 513d e481 1d3d
00000240: 45af 23bc dae2 ac3d 7aaa f3bd d8a0 843d
00000250: 4515 bfbd 4515 78bd abbc 77bd 9946 0f3d
00000260: e9ba 5e3d 32e8 053e 3fd0 b83d f3f9 cbbb
00000270: 6d57 dfbd 39d1 ebbd c932 d6bd de56 a2bd
00000280: 1a93 78bd 4abf 053e 5b0e 7cbd c3b9 0fbc
00000290: 04e6 21bd 7c18 ecbb 4580 51bc 4e38 80ba
000002a0: fe25 7a3d 9e90 d83c cc3f 653d c94d ecbd
000002b0: 379f 4c3b 5e7f 9c3d b740 083d a516 fb3d
000002c0: aa7f b93d c1aa 79bc cd64 7bbd 30fd 463d
000002d0: 0b71 af3c 556e db3c ee3c 9b3d f208 923d
000002e0: 9375 46bd b91e c3bd b2e2 cebd 2af0 94bd
000002f0: 4c39 05bd 32c5 c0bc 41c1 36bc d2b4 b43d
00000300: 239c 243e 1672 25be 15fa e3bd b6ad d0bd
00000310: 7d6c e3bd aa0a 9a3d 8586 8bbd f60b 053e
00000320: 3f0c 09bd 02df 8f3a 410b 923c 2cba cabd
00000330: 16c2 c43d 779e f1bd f306 c43c e6f9 6d3d
00000340: 7ee6 87bd 6ab2 c7bd 1aa6 7dbd 0a9e debd
00000350: 2dac 613d ac42 8c3d a231 a33c f97e 04be
00000360: 8ea3 58bd 16ad 67bd b8a7 b83d 8df5 3b3d
00000370: a33e 6cbd f15d 76bd b170 723d e1fd 39bb
00000380: 2f47 99bd 1c97 8abd ba7b a63d 9aff fd3d
00000390: d308 f63d e3a7 a53d acba dfbd 0480 9d3d
000003a0: e7f9 843d 9dff 9dbd e504 2e3d b429 50bc
000003b0: 4b15 693c 603d 06be db75 d13d 676c af3d
000003c0: 9e0f c43d a056 5d3c 2168 ae3d 2efc cdbd
000003d0: 4db7 9f3c d60f babd 70a0 1e3d f934 46bc
000003e0: 5a83 aa3c 400a 8bbc 071c 203d b2e9 4eba
000003f0: 00f8 b43d 890a 3abd edbf d63b 1b27 063e
0.11746166 -0.11167062 0.23207945 0.046388682 0.21833372 0.34790775 0.14001003 0.2456355
0.14529617 -0.13216662 0.18424688 -0.18374248 0.10965521 -0.03983064 0.19298796 -0.11956987
0.15980527 0.11202124 0.12919717 0.1179847 0.053669382 0.08413499 -0.22283873 -0.2425993
-0.0019135607 0.04093221 0.23112556 0.11549627 0.107108906 0.17619285 0.1364974 0.031641312
-0.106943704 0.16505934 -0.22328384 0.029681863 0.060073134 -0.056782074 -0.04449203 0.16932641
0.043873623 0.18991068 0.16914314 -0.066733666 -0.04790126 -0.124074765 0.054526597 0.23577979
0.09638649 0.111612186 0.023924278 -0.0014214946 -0.10459281 -0.22708839 0.058242697 -0.15942627
0.14107728 -0.19644962 -0.16766128 -0.015196962 0.0516452 -0.20829427 -0.14872333 -0.00543052
0.10671752 0.037261963 -0.03655286 0.02261338 -0.08839854 0.05825459 0.13822997 0.09983405
0.13506044 -0.06675488 -0.07969156 -0.019194894 0.22900432 0.08142262 -0.04099661 -0.0024602239
0.04251974 -0.050661255 -0.005696969 -0.05356201 -0.10031973 -0.010841006 0.058445323 0.009204823
-0.114010036 0.0665751 0.0042471574 0.046792544 0.08332164 0.08722906 0.069579594 -0.09664582
-0.015469251 0.14896555 -0.06269783 0.04869384 0.13128522 0.07241765 -0.042048477 -0.06499516
0.15934636 -0.0723119 0.09558711 -0.08841719 -0.12508386 -0.104477026 0.02497943 -0.026511788
-0.07488615 0.08286539 0.00059684046 -0.07250584 0.01066948 0.088354975 0.110403806 -0.027642908
-0.041024935 -0.07746463 -0.0986194 -0.0037889532 0.0016498467 -0.0014676427 0.11014376 0.11049714
0.10472187 0.052738506 0.11395929 -0.0798927 0.0071545783 -0.004269894 -0.017336607 -0.118974544
0.009017275 -0.12404805 0.08347993 -0.032160226 -0.0103575075 -0.08932948 0.051193237 0.03845395
-0.009990518 0.08441706 -0.1189775 0.06475991 -0.09330229 -0.06056716 -0.060482662 0.034979437
0.05437747 0.13076857 0.09024095 -0.0062248646 -0.10905347 -0.115145154 -0.10458905 -0.07926725
-0.060687162 0.13061252 -0.061537128 -0.008772316 -0.039526 -0.007205067 -0.0127869295 -0.0009782405
0.06107139 0.026436146 0.055969045 -0.11538274 0.003122283 0.07641481 0.033264842 0.122601785
0.09057553 -0.015238465 -0.061375428 0.048581302 0.021416208 0.026786009 0.07579981 0.071306124
-0.04845197 -0.09527344 -0.101018324 -0.0727237 -0.032525346 -0.02353153 -0.011154474 0.08823551
0.16075186 -0.16156802 -0.11131684 -0.10189383 -0.11104677 0.07521565 -0.06812767 0.12992844
-0.033458944 0.0010976496 0.017827632 -0.09898791 0.096073315 -0.11797803 0.023929095 0.05809965
-0.0663576 -0.09750827 -0.061925985 -0.10869987 0.05509584 0.06848654 0.019921128 -0.12939061
-0.052890353 -0.056561552 0.09016365 0.045888472 -0.057676923 -0.060148183 0.059189502 -0.0028380083
-0.0748428 -0.06767103 0.08129068 0.12402268 0.12013402 0.080886625 -0.10924277 0.07690433
0.064929776 -0.0771477 0.042485137 -0.012705255 0.014226268 -0.1310935 0.10227557 0.08565598
0.09573291 0.013509423 0.08515955 -0.10057865 0.019496584 -0.09085052 0.038727224 -0.012097591
0.020814586 -0.016972661 0.03908923 -0.00078930997 0.08836365 -0.045420203 0.006553641 0.13100855

lstm2.bias_ih_l0 f4 [256]
00000000: 4c09 2f3e 3148 e63d 60aa d23d b431 e63d
00000010: d446 0c3e 9eb9 3a3e b51e 03bb 72e7 8b3d
00000020: 51ac ae3d a9d1 f9ba a185 eb3d 0875 843d
00000030: ae9a db3b d90f 1d3d a9b5 f03d 6eb4 9a3d
00000040: cbd2 a83d 18be 1abd 30d5 103e ff66 913c
00000050: 2789 5c3e 7583 083e ce32 ee3d 320a d9bd
00000060: 5e25 a1bd 2a33 4cbd a751 ae3c abae 2ebd
00000070: d231 7abd 033c 3e3d 15e2 8bbb be25 8ebd
00000080: 389e ce3e e407 1bbd 0dd9 c1bd 931b 8abd
00000090: 5305 cb3d 5832 493c f7da 9dbd 8420 b73d
000000a0: 1514 103e bf27 30bd e509 cd3d 1433 163d
000000b0: 4702 8d3d ed3e 243e 1eed a43b f505 823c
000000c0: 412c 203e e91e fc3d 147b aabd 0d68 ac3a
000000d0: 5669 b93d 23ce 8e3b 9591 473d 592b 0a3e
000000e0: 60fe 7b3b 2793 f23d 74c9 e23d 17ad f6bb
000000f0: 1e4d 063e 72d1 c63d 581e e93d ca2d e13d
00000100: cbdf 14be 2eb9 0cbe b235 803c 8fca febd
00000110: bccf 8b3d 0525 433c 2b3d 663d 8f70 63bd
00000120: feb1 d03d 9b8a ec3c 5cf7 553d 1978 39bc
00000130: 9578 21be ba4f 993d 433f b3bd c000 b53d
00000140: d962 823d 344e 17bd c0b5 82bd 4e5e 333d
00000150: ae86 33be e641 c33d 3131 8f3d 282e 8abd
00000160: 5317 10be 4154 0ebd 6ac3 89bd 3312 3e3d
00000170: e774 843c d4d2 e2bc fabd 2f3d 79ea 47bd
00000180: 8807 32bc b0bc bfbd 7cde 783d a4f4 cb3d
00000190: 2446 823d 0c90 153d ace1 91bd 18a2 dcbd
000001a0: ec25 f6bd d808 abbd 5bec d53d 72a5 7b3c
000001b0: 1f1c ce3d 15eb 03be 8632 d13c 7c6a d0bd
000001c0: 8abf a8bd ce0f dfbd 71b2 debd 69be 3b3c
000001d0: 3431 5e3d 4fd5 6cbd a3f5 42be 65a0 113c
000001e0: 4118 bbbd 5afd 303d c968 d63c 9b7d 7bbd
000001f0: 09a7 85bd 6601 97bd e092 81bd c949 4e3d
00000200: 1b97 22bd 090f a8bd 2f2a 5cbd 5e81 3dbd
00000210: 1070 af3d 176c 9bbc 28dc 7d3d b0f6 0e3c
00000220: fb15 ca3d 9885 943d 070d 583d 072b ccbd
00000230: 4e7a 3d3d 6446 7f3d e950 ed3d eb6b 41bd
00000240: 0662 533d bb74 c03b 17a9 eb3d 12d0 863d
00000250: 44b1 1ebd cfbd 6a3c 4e27 87bd 3cef 80bd
00000260: 2fb7 0f3d 1922 78bb 7155 75bd ef6c 3cba
00000270: 6587 a33d 1345 463d 4709 93bd 740a 20bc
00000280: e9ee 633c d09f 3cbd 8d75 803c 0feb 7fbd
00000290: 298a c33c e4ac 613c 6765 cfbd c39d 033a
000002a0: 4b83 e0bc d1b2 d83d 613f 613d 30ad 84bc
000002b0: 830c bdbd 8bde aa3d aef4 eb3c 7842 bd3d
000002c0: 8e55 363d f06e 89bd 35e5 803c f004 f6bc
000002d0: 57fa d43c 201a dcbd 20ae b63d d79f f2bd
000002e0: 8348 5a3d 06a7 b4bd 32ce cbbc 0c22 f53c
000002f0: 48d8 96bd d0ff a8bd 11f5 b53d 3c45 923c
00000300: 8ffa 523e a3ca f83d 9c7e 48bd f533 fc3c
00000310: 311f 043e 0cc8 f63d 168f 8bbd b095 c73d
00000320: fdc9 44bd 7744 f8bd c754 33bd 37dc 1fbd
00000330: 452b 1f3e ca8c 00bd b8f0 063d 1b02 c4bd
00000340: f8e6 133e 50fc 8ebd b4cd 333d f9f4 b43a
00000350: 01a6 553e c866 173e 4317 ac3d 17bb b9bd
00000360: f9fc 8d3c 6e70 5fbd 2f6c ed3d 58c5 c43d
00000370: 7d7b ce3c 9783 4f3e a556 493d bcf2 673b
00000380: 5df6 8c3e b10c cd3b 5c0d dfbd 3ee3 c6bc
00000390: 7f63 913c 201c 923c 767f d0bb 061d 883b
000003a0: 4958 d63d 4507 b6bd afda e2bd e074 3f3c
000003b0: d842 c33d 0c9e 953e b68c d73c f131 a0bd
000003c0: 67d3 ef3d 4f11 3e3e cc76 3ebd 39bf c8bc
000003d0: 94f4 bcbd 5b7e a8bb d82e e43d 8828 75bd
000003e0: c366 3b3d 731b a5bd 7f1c cc3b 7b46 e43d
000003f0: 6db8 a73b 7c7f a5bd e16d 173e 6afc cc39
0.1709339 0.11244238 0.10286403 0.11239949 0.13698894 0.1823487 -0.0020007316 0.06831254
0.085289605 -0.0019059676 0.11500097 0.064676344 0.006701789 0.03834519 0.11753399 0.075539455
0.082433306 -0.037778944 0.14143825 0.017749308 0.21536694 0.13331397 0.11630784 -0.10597648
-0.07868455 -0.04985348 0.02127917 -0.042647045 -0.06108267 0.04644395 -0.0042688944 -0.069407925
0.40355086 -0.037849322 -0.09465227 -0.067435406 0.09913125 0.012280069 -0.0770778 0.08941749
0.1407016 -0.043006655 0.10011653 0.036669806 0.068852 0.1603963 0.0050331494 0.015871981
0.15641882 0.12310583 -0.083242565 0.0013153568 0.09053294 0.0043580695 0.048722822 0.13493098
0.003845118 0.11844473 0.110735804 -0.007527958 0.13115355 0.09707917 0.11382741 0.10995062
-0.14538495 -0.13742515 0.015650604 -0.12440979 0.068267316 0.011910682 0.056210678 -0.055527266
0.10190199 0.028874686 0.052237853 -0.011320137 -0.15768655 0.0748591 -0.087523006 0.08838034
0.0636651 -0.036939815 -0.06382322 0.043791108 -0.17531845 0.095340535 0.069918044 -0.06747085
-0.14071397 -0.03474832 -0.067267254 0.046404075 0.016169025 -0.027688421 0.042905785 -0.048807595
-0.010866053 -0.09362161 0.060759053 0.09958771 0.063610345 0.036514327 -0.071231216 -0.107731044
-0.12018952 -0.08351296 0.10445472 0.015359269 0.100639574 -0.12882645 0.025536787 -0.1017656
-0.08239658 -0.108916864 -0.10873879 0.011458972 0.054246143 -0.057820614 -0.19039015 0.008888339
-0.091354854 0.043210365 0.026173012 -0.061399084 -0.06526 -0.073733136 -0.06326842 0.050363336
-0.039694887 -0.08205993 -0.053751167 -0.046265952 0.08566296 -0.01897244 0.061977535 0.008725807
0.09867474 0.072520435 0.0527468 -0.09969144 0.046259217 0.06232299 0.11587698 -0.04722206
0.051607154 0.0058732904 0.11506861 0.06582655 -0.038743272 0.01432748 -0.06599294 -0.0629563
0.035086807 -0.003786212 -0.059895936 -0.0007187863 0.07984809 0.048405718 -0.07179504 -0.009768117
0.013911941 -0.046050847 0.015681053 -0.06248003 0.02386959 0.0137741305 -0.10126763 0.0005020762
-0.027406355 0.105809815 0.054992083 -0.016195863 -0.09230902 0.08343228 0.028803196 0.092411935
0.044515185 -0.06710613 0.015734294 -0.030031651 0.025998278 -0.107471704 0.089199305 -0.11846893
0.05329181 -0.0882092 -0.024878595 0.029923461 -0.07365471 -0.08251917 0.08884633 0.01785528
0.20603393 0.12148025 -0.04894887 0.030786494 0.12902524 0.12049875 -0.06814401 0.097453475
-0.048044194 -0.12122434 -0.04378202 -0.039028373 0.1554385 -0.031384267 0.03294441 -0.09570714
0.14443576 -0.069817185 0.043897346 0.0013805918 0.20864107 0.14785302 0.08402874 -0.09068888
0.01733254 -0.05455058 0.115929 0.09607953 0.025205368 0.20265041 0.049154896 0.0035392484
0.2753171 0.0062576164 -0.1089122 -0.02427828 0.017747639 0.017835677 -0.006362851 0.0041538505
0.10466058 -0.08888105 -0.11076867 0.01168558 0.09534234 0.29222143 0.026312213 -0.078220256
0.11710244 0.1856129 -0.046500012 -0.024505245 -0.09226337 -0.005142016 0.11141747 -0.059853107
0.045752298 -0.08061876 0.006228983 0.111462556 0.005118421 -0.08080956 0.14788009 0.00039097975

lstm2.bias_hh_l0 f4 [256]
00000000: eaf0 7c3e d4b5 d03b 5a73 bbbd b381 d13c
00000010: 09f9 3c3c 90ce b53d b9ae 883d a941 ee3d
00000020: eed9 213c 5714 8ebd 3c7f 6b3d 1165 cdbd
00000030: 5ab8 8d3d 7799 47bd f7e7 8a3d d298 90bd
00000040: 5d17 633d d864 223e 0b53 50bb 7e54 3c3d
00000050: 9c94 893d 5834 193e 448f a23d 09e9 c1bc
00000060: 166f 15bd 11a9 b83d a02e 253d ec71 8b3c
00000070: 234b cf3d a657 f83d eff7 3f3d 0a95 013c
00000080: f6d3 e73e 1802 2e3d c5af 423d 6d23 6d3d
00000090: f214 023d 7739 223d 2996 b73d 7cda c6bb
000000a0: 91d1 b13d 7a26 89bd d9f3 afbd c1d3 89bc
000000b0: bcd0 a1bd c045 053e a6d8 803d b71e 92b9
000000c0: 57c7 023e ad11 0a3d d2a9 cc3d e86a d53d
000000d0: 2fdd 98bd 1f2c ef3d c052 493e 820d 263d
000000e0: 3fd7 2d3d 0d6e 8cbc 68cd d53c a2de d63b
000000f0: 4b4d d9bb d8f9 a9bb d8bf 3fbd e42e 7e3d
00000100: 7a3e d93c b514 9b3d 9135 1bbc 79c6 c9bd
00000110: caa6 223d 4c0d 6f3d ac8e 11bc 55b8 ce3d
00000120: 018b a23d 6b9b bdbb b559 e2bc fb62 f73d
00000130: 2d09 6fbd f752 f8bd 67aa acbc 951c bbbc
00000140: f0d4 77bd 0304 34bb 0650 933c c906 c93d
00000150: 96c9 d8bd 9c3d 8fbd b880 4bbb 1179 6c3d
00000160: 2a52 2cbc 5c80 d0bd d10a a5bd 3ade 11be
00000170: a938 debd 17f7 02be 6bd2 b539 c884 423a
00000180: a88e a1bd 3053 4b3d 889b b93d c8bd ce3d
00000190: cd10 46bd cd86 0ebe 4903 ac3d b250 b63d
000001a0: 3d49 c73b 92c4 e93d ba46 fabd 74c1 0abe
000001b0: f13b 0abe f339 9cbc acb4 08bd 34bd 733d
000001c0: e55b 283d c561 14be 0bab 9ebb e35a ddbc
000001d0: 5c75 c0bd 92b7 d8bc d177 cbbd 6b59 d7bd
000001e0: 45c9 e53c bec9 85bc d252 0e3d ea32 03be
000001f0: 0a53 d0bd d56f 6a3c 1eda a83c 443c b4bc
00000200: bb69 8e3d 615b 83bc a118 adbb ef32 afbc
00000210: 004d ce3d b3f7 b93d 96e0 343d 04be c83d
00000220: c245 bb3d b816 4abd 3df0 e43d 5c5c 433d
00000230: 025d 2bbd 6c56 e1bd 07d1 1d3c 9b45 3d3d
00000240: ae10 50bd 25d6 a03c b413 5bbc 476a 33bd
00000250: 796a 81bd 7ce4 c63d 4ea1 12bc 77df 64bd
00000260: 9324 983c 6018 b2bd 57a5 b23d fbc4 8f3d
00000270: 5c16 ed3d afa7 4f3c 3f24 2e3d 1fda 9bbd
00000280: 13e1 063d 885a e7bb 84f8 8cbd d7c8 19bc
00000290: d2c2 843c 050b fabc ccc7 d33d 5474 5e3c
000002a0: 5660 4c3d b673 e2bb a1d2 3d3c 742e 76bd
000002b0: 3a35 61bd ebb9 ccbd 6596 d13c 77a9 c13b
000002c0: 8768 2f3d ca6d 433d 54ab 90bd 0885 943d
000002d0: 292e e4bc d3cf eabc 08bd b13b d76e d23d
000002e0: 52a5 6a3d 67b4 1a3c c667 bcbd 6769 66bd
000002f0: bdb5 2abb 59e5 09bd 745f e13d 2f50 523d
00000300: e5a4 433e 7b8d 733a 479b 803d 930f f83d
00000310: bce6 1b3d 0482 a33d 49be 8f3c 236a 0c3d
00000320: 8539 ac3d 8e36 84bd 476f f13d addb b03c
00000330: ab9f 503e dfae 61bc f502 ed3d 0cd7 113e
00000340: c7c0 ec3d 7260 543d 15dc 853d 72e8 92bd
00000350: 3281 823e 1555 73bd 6bfc 98bd 74b6 ce3d
00000360: ae5f c6bd ddfd 163e f744 b1bb b8d7 a03d
00000370: 5c0c 7f3d 066d 993d f1fd c43d 4f7f 9f3d
00000380: c59b 8d3e 84e7 e1bd 53f2 d0bb cffe 453c
00000390: 4726 e83d 7a29 283c a9e1 633c 2734 ab3c
000003a0: 4b6e 613d b7fd 85bc 1b3f f73d dd8c 47bd
000003b0: a6bb 85bd 4dad 473e 01e8 cbb9 a240 16bb
000003c0: afc8 973b 4c0b c63d db7d b43d 391a ba3d
000003d0: e98b 023e 2a12 1c3d 6b46 733d 4f5d b0bd
000003e0: 2614 04bd a7a1 13bc db25 153d 1608 e33d
000003f0: 6878 a7bd f9c3 b33d 2b2c 123e eaa9 c03c
0.24701276 0.006369332 -0.09152861 0.02557454 0.011533984 0.08877289 0.06673951 0.116336174
0.009878619 -0.06937473 0.057494387 -0.100290425 0.06919928 -0.04873034 0.06782525 -0.07060398
0.055442203 0.15858781 -0.0031787779 0.045979016 0.06717798 0.14961374 0.07937482 -0.02367069
-0.036482893 0.09016622 0.04032767 0.017022096 0.10121753 0.121260926 0.046867307 0.007909069
0.452789 0.042482466 0.04753091 0.057895113 0.031758256 0.039605584 0.08964188 -0.006068526
0.0868255 -0.06696792 -0.08591432 -0.016824605 -0.07901141 0.13014889 0.062913224 -0.00027870174
0.12771355 0.033708263 0.09993328 0.104207814 -0.074640624 0.11678337 0.19660473 0.040540226
0.042441603 -0.01714232 0.026098922 0.0065573016 -0.0066315285 -0.0051872544 -0.046813816 0.062056437
0.026519049 0.07572309 -0.00947322 -0.09852309 0.039709844 0.05836229 -0.008884113 0.10093752
0.07936669 -0.0057863495 -0.027630666 0.12079426 -0.05835836 -0.12125199 -0.021077348 -0.022840777
-0.060505807 -0.0027468211 0.017982494 0.09815747 -0.105853245 -0.06994173 -0.0031052064 0.057732645
-0.010517636 -0.101807326 -0.08058704 -0.14244929 -0.10850651 -0.1278957 0.00034679784 0.00074202986
-0.07888538 0.04963988 0.09062868 0.10094792 -0.048355866 -0.1391861 0.08399064 0.0890211
0.0060817287 0.11414446 -0.12220521 -0.13550359 -0.13499428 -0.019070601 -0.033375427 0.05950661
0.041103262 -0.14490421 -0.0048421673 -0.027020877 -0.093973845 -0.02645472 -0.099349625 -0.10515102
0.028050074 -0.01633155 0.034746952 -0.12812391 -0.101720884 0.014308889 0.020611819 -0.022001393
0.0695376 -0.016034784 -0.005282477 -0.021386592 0.1007328 0.09080448 0.044159494 0.098018676
0.091441646 -0.049338073 0.11178634 0.047695503 -0.041836746 -0.11002812 0.0096323555 0.04620896
-0.050797157 0.019633362 -0.013371397 -0.043802526 -0.06319136 0.09711549 -0.008949591 -0.055877175
0.018572127 -0.086960554 0.08722942 0.07019993 0.1157653 0.012674256 0.042515036 -0.07609963
0.03292949 -0.0070603527 -0.06883338 -0.009386263 0.016206179 -0.030522833 0.103408426 0.0135775395
0.04989656 -0.0069107665 0.011585862 -0.060102895 -0.0549824 -0.099963985 0.025584409 0.0059100944
0.042824294 0.047712125 -0.07063928 0.07251936 -0.027854042 -0.028663551 0.0054241456 0.10275047
0.057286568 0.009442425 -0.09199481 -0.056252863 -0.0026048266 -0.03366599 0.11004534 0.051346
0.19105871 0.00092907966 0.06279617 0.121123455 0.038061842 0.07983783 0.01754679 0.034280907
0.084094085 -0.06455718 0.117888026 0.021589125 0.20373408 -0.013774603 0.1157283 0.1424219
0.11560207 0.05184979 0.06536118 -0.07173242 0.25489193 -0.059407312 -0.0747002 0.10093394
-0.09686218 0.14745279 -0.0054098326 0.07853645 0.062267646 0.07491498 0.09618748 0.07787954
0.27657905 -0.11030486 -0.0063765435 0.012084677 0.11335426 0.010263795 0.013908782 0.020898892
0.055036824 -0.016356332 0.12072583 -0.048718322 -0.06529932 0.19499703 -0.00038892034 -0.0022926708
0.0046320776 0.096701235 0.088130675 0.09087033 0.12748684 0.03810326 0.059393328 -0.08611547
-0.032245778 -0.009010709 0.036413055 0.11085527 -0.081772625 0.08777613 0.14274661 0.023518521
